models/saved_models/pokec/mf_model.pth (torch, 513630 bytes, 2 tensors)

user_embedding.weight f4 [1000, 64]
0	0xbfbb972f	-1.4655513
1	0xbf6b8bda	-0.9201027
2	0x3f131ae3	0.574629
3	0x3f9b600e	1.2138689
4	0xbf516d08	-0.81806993
5	0x3ed136e2	0.40862185
6	0x3fa5aaba	1.2942727
7	0x3ec40a24	0.38288987
8	0x3fef0eef	1.8676432
9	0xbea41768	-0.32049108
10	0xbf2f4717	-0.6846785
11	0xbf4120fa	-0.75440943
12	0x3f912252	1.1338599
13	0xbfa3d31d	-1.2798802
14	0x3e3773ac	0.17915219
15	0x3f25f95e	0.6483363
16	0x3f486277	0.78275245
17	0x3f0d6775	0.5523599
18	0xbe5ce836	-0.21572956
19	0x3f380798	0.7188659
20	0xbf95a70e	-1.1691606
21	0x3f759ee7	0.9594559
22	0xbf679462	-0.9046079
23	0xbd608f92	-0.05482442
24	0x3df70047	0.120606
25	0x3f795610	0.97396946
26	0x3f87475c	1.0568652
27	0xbfa0225d	-1.2510487
28	0x3e19a0f3	0.15002804
29	0xbf11c3db	-0.56939477
30	0xbf812555	-1.0089518
31	0xbfad66d3	-1.3547004
32	0x3f677072	0.9040595
33	0x3e15f2bf	0.14643382
34	0xbd54aff4	-0.051925614
35	0xbf45ad97	-0.77218
36	0x3f917379	1.1363364
37	0x3fd0bd23	1.630772
38	0xbe40b3db	-0.1881861
39	0xbf7ccc9b	-0.98749703
40	0x3f0e481e	0.5557879
41	0x3f1290d8	0.57252264
42	0x3e0272bb	0.12739079
43	0x3eb94132	0.36182553
44	0xbb803467	-0.003912497
45	0x3f432000	0.76220703
46	0x3d8bfe54	0.068356186
47	0xbf941b1f	-1.1570777
48	0xbfb9b1c0	-1.450737
49	0x3ea51103	0.3223954
50	0xbe206475	-0.15663321
51	0xbecf768c	-0.40520132
52	0xbee5ca14	-0.44880736
53	0x3fba4aed	1.4554116
54	0xbeeb169b	-0.45915684
55	0xbf3da257	-0.74075836
56	0x3ede9ef6	0.43480653
57	0xbe74be1b	-0.23900644
58	0xbed49295	-0.41518083
59	0xbecc7d35	-0.39939275
60	0x3ecdfba3	0.40231046
61	0x3f0cfa83	0.5506975
62	0xbfe89622	-1.8170817
63	0x403b4bac	2.9264936
64	0xbee36844	-0.44415486
65	0x3f2a0e25	0.6642783
66	0x3f757cf3	0.9589378
67	0xbde601f2	-0.1123084
68	0xbe4534d7	-0.19258438
69	0xbfc69c88	-1.551652
70	0x3fdeeb65	1.7415587
71	0x3fcc2aec	1.5950599
72	0x3ff6e8ee	1.9289834
73	0xbf757f91	-0.95897776
74	0x3e880385	0.26565185
75	0x3f179b15	0.5922101
76	0xbf8f3e4c	-1.1190886
77	0xbe8db5ee	-0.27677864
78	0x3fc5ecf7	1.5462941
79	0xbe7b7808	-0.24557507
80	0x3de2df05	0.11077694
81	0x3f8ec9d2	1.1155341
82	0x3df54ef4	0.1197795
83	0xbf810349	-1.0079128
84	0x3efc0822	0.49224955
85	0xbe532189	-0.20618261
86	0xbfae0d39	-1.3597785
87	0x3fa2d5cb	1.2721494
88	0xbe70daf2	-0.23521021
89	0x3f35a080	0.7094803
90	0x3f11fcb9	0.5702625
91	0x3f07618e	0.5288323
92	0x3da4d5dd	0.08048604
93	0xc00f53dc	-2.2394934
94	0x3ce7da80	0.028302431
95	0xbf6a9d70	-0.9164648
96	0xbe3f801b	-0.18701212
97	0xbf93bd3a	-1.1542122
98	0xc0140f49	-2.313433
99	0x3fb4e14c	1.4131255
100	0xbe9bcd39	-0.3043001
101	0xbee01c77	-0.43771717
102	0x3f11b401	0.5691529
103	0xbf5fcd58	-0.87422705
104	0xbd603011	-0.05473334
105	0x3fe2ee5a	1.7728989
106	0xbed03bef	-0.40670726
107	0x3cf4f1b3	0.029900407
108	0xbe1a7059	-0.1508192
109	0x3f88fb4c	1.070169
110	0x3fc271f7	1.5191029
111	0xbe979a6b	-0.2961
112	0xbe6234b7	-0.22090422
113	0xbf83261b	-1.0246004
114	0x3f23429a	0.637735
115	0xbf629db1	-0.8852187
116	0x3fa78d64	1.3090024
117	0xbd9d7a4e	-0.076893434
118	0xbf539bd9	-0.8265968
119	0x3f7da5f9	0.9908138
120	0x3f9b85f8	1.2150259
121	0xbe9295cc	-0.2862991
122	0xbe9a99b1	-0.30195382
123	0x3f53e4ee	0.82771194
124	0xbf67ea5d	-0.90591985
125	0x3f4f0780	0.8087082
126	0xbed53967	-0.41645357
127	0xbee0e52e	-0.4392485
128	0x3fce62d8	1.6123915
129	0x3f88acc3	1.0677723
130	0xbd42cd4c	-0.047559068
131	0x3f09cc5a	0.5382744
132	0xc0086924	-2.1314173
133	0xbea505fe	-0.32231134
134	0x3f06465d	0.52451116
135	0xbfd1546d	-1.635389
136	0xbf6507f1	-0.8946524
137	0xbf529842	-0.82263577
138	0xbfcb1d6a	-1.5868351
139	0xbf18cdc4	-0.59688973
140	0x3fd1b56e	1.6383493
141	0x3f2c8f44	0.67406106
142	0x3e6423ab	0.22279231
143	0x3f73043a	0.94928324
144	0x3f650b9d	0.89470845
145	0x3f8e3678	1.1110373
146	0xbf446b47	-0.7672619
147	0xc01486ae	-2.3207202
148	0xbfadd770	-1.3581371
149	0x3f962559	1.1730148
150	0xbf87b010	-1.0600605
151	0xc01191b0	-2.274517
152	0xbf0af2d0	-0.5427675
153	0xbea51b68	-0.32247472
154	0xbfae150a	-1.3600171
155	0x3f36bd3d	0.71382505
156	0xbdf3b3f8	-0.11899561
157	0xbf066ffa	-0.5251461
158	0x3ea2a684	0.31767666
159	0xbf5af871	-0.8553534
160	0xbf5c6717	-0.860948
161	0xbd4443dc	-0.04791628
162	0xbfcf483b	-1.6193918
163	0xbf8ccba0	-1.0999641
164	0x3f56604f	0.83740705
165	0x3fd0ae86	1.630326
166	0xbf92b3d8	-1.1461134
167	0xbff83570	-1.9391308
168	0xbed272ac	-0.41103113
169	0xbc7b1afd	-0.015326259
170	0xbfa61fc9	-1.297845
171	0xbf8e8357	-1.1133832
172	0xbfd754d8	-1.6822767
173	0xbe19ee94	-0.15032417
174	0x3e06e130	0.1317184
175	0x3eec1770	0.4611163
176	0x3f5e97d4	0.8695042
177	0xbf9c8134	-1.222693
178	0xbf1af273	-0.605262
179	0x3f5122fc	0.81694007
180	0xbed8d159	-0.4234722
181	0xbf9293fd	-1.1451412
182	0x4024c91c	2.5747747
183	0x3fc7d2df	1.5611228
184	0xbd03f44f	-0.032215413
185	0x3f159786	0.5843433
186	0x3e3ff4d5	0.1874574
187	0xbff406d7	-1.9064587
188	0xbd8011ef	-0.062534206
189	0xbfe6ac0a	-1.8021252
190	0x3f33e42a	0.70270026
191	0xbd9a0d5d	-0.0752208
192	0xbde4f0af	-0.11178719
193	0x3f2a57d8	0.6654029
194	0x3f84e751	1.0383092
195	0x3e1c8405	0.15284736
196	0xbf532f4f	-0.8249406
197	0xbd8b1573	-0.067912005
198	0xbf22315a	-0.63356555
199	0x3fd9e5f7	1.7023305
200	0xbfe8269b	-1.8136781
201	0xbf23396b	-0.6375949
202	0xbfd5a06f	-1.6689585
203	0x3ea56f60	0.32311535
204	0x3f65c7ab	0.89757794
205	0x401f9054	2.493184
206	0xbedfb6d4	-0.43694174
207	0x3f4a9a01	0.7914124
208	0x3ffeb470	1.9898815
209	0xbff8a320	-1.9424782
210	0x3fc8dece	1.5692995
211	0xbe8b3412	-0.27188164
212	0x3fd7a2df	1.6846579
213	0xbf0c539f	-0.54815096
214	0x3fd696f0	1.6764812
215	0xbe9b9693	-0.30388317
216	0xbf9089fb	-1.1292108
217	0x3f98cb66	1.1937072
218	0x3f333cb0	0.70014477
219	0x3db4157e	0.08793162
220	0x3e83a0e2	0.2570868
221	0x3e6e3405	0.23262031
222	0xbf7c411f	-0.98536867
223	0x3d80de24	0.0629237
224	0xbf27c952	-0.65541565
225	0x3f6b1c53	0.91840094
226	0xbed74db2	-0.42051464
227	0xbf834eea	-1.0258458
228	0x3f309644	0.6897929
229	0x3eb7dd2f	0.35910937
230	0xbfa7ba32	-1.3103697
231	0x3eafbcaf	0.34323642
232	0x3d48a9ee	0.048990183
233	0xbf9a3659	-1.2047836
234	0xbf0bb8ac	-0.5457866
235	0xbdeb9257	-0.115025215
236	0x3e8a3671	0.2699466
237	0x3d7b33bd	0.06132864
238	0x3eef528c	0.46742666
239	0xbf4416ff	-0.7659759
240	0x3ebe3224	0.3714763
241	0x3fd362b9	1.6514503
242	0xbfbb333a	-1.4625008
243	0x3fa14c13	1.2601341
244	0x3dfb4384	0.12268737
245	0x3f4b50c0	0.7942009
246	0x3f83e91f	1.0305518
247	0x3e2ba795	0.16763146
248	0x3f1f49b0	0.62221813
249	0x3ef1dfbc	0.47241008
250	0xbfdc5b3b	-1.7215341
251	0x3e015aa4	0.12632233
252	0xbcfe9df2	-0.031081174
253	0x3eb502d5	0.35353723
254	0xbe84a417	-0.2590644
255	0xbdbfc690	-0.09364045

friend_embedding.weight f4 [1000, 64]
0	0xbfd8b7ca	-1.6931088
1	0x3fcb1620	1.5866127
2	0x3fd0cf08	1.6313181
3	0x3f91ebd1	1.140009
4	0xbf8cd3b7	-1.100211
5	0x3f220731	0.63292223
6	0xbdd99209	-0.10623557
7	0x3eb50053	0.3535181
8	0x3d6a97b8	0.057273597
9	0x3f4996ad	0.7874554
10	0xbfd43674	-1.6579118
11	0x3ee461f7	0.4460599
12	0xbe0d3f0a	-0.13793579
13	0xbd6ce0ae	-0.05783146
14	0x3faa739c	1.3316531
15	0x3f42add2	0.7604648
16	0x3f1c0b85	0.6095508
17	0xbf228bdf	-0.63494676
18	0x3f4aaa0e	0.7916573
19	0x3f1331c6	0.57497823
20	0xbf13dad8	-0.57755804
21	0x3e9571fa	0.2918852
22	0x3c34d121	0.011036188
23	0xbe35ef05	-0.1776696
24	0xbed9a52e	-0.42508835
25	0xbfc6ce3a	-1.5531685
26	0xbf7a16ee	-0.9769124
27	0xbf59ab28	-0.8502679
28	0xbe986530	-0.297647
29	0x3eda46e0	0.42632198
30	0xbff057bb	-1.8776773
31	0xbe200144	-0.15625483
32	0xbf94d76c	-1.1628242
33	0x3d6413d8	0.055682987
34	0x3feb3453	1.8375343
35	0xbf005cc1	-0.5014153
36	0x3ecad7b0	0.39617682
37	0x3db8346d	0.089943744
38	0x3e73b9e7	0.23801385
39	0x3f3acfce	0.72973335
40	0x3f38f93f	0.7225532
41	0xbf9df623	-1.234074
42	0xbf1e79cc	-0.619046
43	0xc020f1bf	-2.514755
44	0x3ec1c6db	0.37847027
45	0x3d17ed22	0.03709138
46	0xbd8fd3d0	-0.07022822
47	0x3c840a78	0.016118273
48	0xbecfb1cc	-0.40565336
49	0x4010cd45	2.2625287
50	0x3eb7ad97	0.35874626
51	0xbfe78963	-1.8088802
52	0xbfd348d7	-1.6506604
53	0x3f80ece9	1.0072299
54	0x3dcc292e	0.09968792
55	0x3f9c6ac2	1.222008
56	0xbf92902d	-1.1450249
57	0xbe3e2c28	-0.18571532
58	0x3fc46e4c	1.534616
59	0x3f935632	1.151068
60	0xbf6a965e	-0.9163569
61	0x3f9891ba	1.1919472
62	0x3fad352f	1.3531855
63	0x3fe46def	1.7846049
64	0x3c2d57cf	0.010580017
65	0x3fc4ebf4	1.5384507
66	0xbea26a26	-0.3172161
67	0xbfe7f16d	-1.8120552
68	0xbe96d4b2	-0.2945915
69	0xbf356673	-0.7085945
70	0x3fa88c85	1.3167883
71	0xbfbd77da	-1.4802201
72	0x3ca5edf9	0.020255076
73	0x3feac34a	1.8340847
74	0xbe22ed6a	-0.15910879
75	0xbf20ef66	-0.62865293
76	0x3fc76031	1.557623
77	0x3e922614	0.28544676
78	0x3fd68f76	1.6762531
79	0xbf904d25	-1.1273543
80	0xbdce39dc	-0.100696295
81	0xbf105a2f	-0.5638761
82	0x3f650263	0.89456767
83	0xbf71d145	-0.94459945
84	0xc01333be	-2.300033
85	0xbf2453f3	-0.64190596
86	0x3ec40f4c	0.3829292
87	0xbf400a1d	-0.7501543
88	0xbf40c456	-0.75299585
89	0x3f533409	0.82501274
90	0xbf895fa4	-1.0732312
91	0x3f170b83	0.5900194
92	0x3e9d6d92	0.30747658
93	0x3f3078aa	0.6893412
94	0x3f3862fc	0.7202604
95	0x3d38fa9f	0.045160886
96	0xc001a564	-2.0257196
97	0x3ec094f1	0.37613633
98	0xbfca4ea4	-1.5805249
99	0xbf61f6c3	-0.88267154
100	0x3ee1f777	0.44134113
101	0xbfa03656	-1.2516582
102	0xbe6642f9	-0.22486486
103	0x3eeae83f	0.45880315
104	0xbeb7af43	-0.35875902
105	0x3f3c4c9a	0.73554385
106	0xbf3a0a76	-0.7267221
107	0x3f0d13d9	0.5510841
108	0xbfa6cd39	-1.3031379
109	0x3f301d1e	0.6879443
110	0x3ea7182f	0.32635638
111	0xbee7c6c4	-0.45268834
112	0xbfd288af	-1.6447963
113	0x3ee08df4	0.43858302
114	0x3f38af02	0.7214204
115	0x3f3a36d0	0.7273989
116	0x3ecce647	0.40019438
117	0xbf1834b0	-0.59455395
118	0xbf247484	-0.6424029
119	0xbfb089bd	-1.3792034
120	0xbf0e7ca5	-0.5565894
121	0xbcdcfc59	-0.026975797
122	0xbf35d039	-0.7102085
123	0x3e8686d9	0.26274756
124	0x3e4204bc	0.18947119
125	0x3fda55a0	1.7057381
126	0xbe16a16c	-0.14710015
127	0xbf9ece42	-1.2406695
128	0xbf5bf105	-0.8591464
129	0x3da30b11	0.07961095
130	0x3e3f107d	0.18658634
131	0x3eb76996	0.35822743
132	0x3d9ee8f6	0.077592775
133	0xbf45f5ef	-0.7732839
134	0x3e44681b	0.19180338
135	0xbf0f9cdc	-0.56098723
136	0x3f48b0da	0.78394854
137	0xbc9f416d	-0.019440377
138	0xbf60cacd	-0.8780945
139	0xbdc829c8	-0.09773594
140	0x3f0d23da	0.5513283
141	0xbf4b608a	-0.7944418
142	0x3f745fe6	0.9545883
143	0xbe4fd881	-0.20297433
144	0xbf708a15	-0.93960696
145	0x3f814c49	1.0101405
146	0xbfac4866	-1.3459594
147	0x3ebefcf2	0.37302357
148	0xbf3bfef9	-0.7343593
149	0xbf0040fb	-0.5009915
150	0x40024524	2.03547
151	0xbefc9109	-0.49329403
152	0xc00d9df1	-2.212765
153	0xbfa74cec	-1.307035
154	0xbfb79e0d	-1.4345108
155	0xbfb689c1	-1.4260789
156	0x3ff2f17e	1.8979948
157	0xbf086c2f	-0.53290075
158	0x3ea182e7	0.31545183
159	0x3f8eecf8	1.1166067
160	0x3f5ae12f	0.8549985
161	0x3d967178	0.07345861
162	0x3f3c3db8	0.73531675
163	0x3e860e40	0.26182747
164	0x3ecb3645	0.39689842
165	0x3f3e1d00	0.74263
166	0x3f6fcec8	0.936749
167	0x3ee4efc1	0.44714168
168	0xbeb03f14	-0.34423125
169	0x3faf97d5	1.371821
170	0x3df6d54e	0.120524034
171	0x3fb8587c	1.4402003
172	0xbe1d49d3	-0.15360193
173	0xbe82c593	-0.25541362
174	0xbf0d1048	-0.5510297
175	0xbf9a7732	-1.2067626
176	0xbf076d7b	-0.5290143
177	0x3ea9895c	0.3311261
178	0xbe99cc7c	-0.30038822
179	0x3eb37e73	0.3505741
180	0x3f90e023	1.1318401
181	0x3f8b01fe	1.0859983
182	0x3e895dbe	0.26829332
183	0x3d25ec6d	0.040508676
184	0xbeb134a5	-0.34610477
185	0xc00039f1	-2.0035365
186	0xbf97ea27	-1.1868333
187	0xbf8afa15	-1.0857569
188	0x3be44b8d	0.006967014
189	0xbdaa447d	-0.08313844
190	0xbe0777cd	-0.13229294
191	0xc00e6bf5	-2.2253392
192	0x3ffbd643	1.9674762
193	0x3eee9c9d	0.4660386
194	0x3fb43245	1.4077841
195	0x3f2745ff	0.6534118
196	0xbdfee543	-0.12446072
197	0xbe04d10d	-0.12970372
198	0xc01d2759	-2.4555266
199	0xbee4377e	-0.44573587
200	0xbeb6538a	-0.3561061
201	0x3edc51a8	0.4303105
202	0x3f9b0cd4	1.211329
203	0xbeb12b85	-0.34603515
204	0xbf408227	-0.75198597
205	0x3fb07098	1.3784361
206	0xbed0a1c5	-0.4074842
207	0x3ff1c868	1.8889284
208	0x401336dd	2.3002236
209	0x3fada75f	1.3566703
210	0x3dbcefca	0.09225424
211	0xc04d0fda	-3.2040925
212	0x3e98bef7	0.29833195
213	0xbf93dce5	-1.1551787
214	0xbf8c4327	-1.0957993
215	0x3e4ef002	0.20208743
216	0xbd8de3d2	-0.06928219
217	0x3fb4c667	1.4123048
218	0x3e851b00	0.25997162
219	0xbe622ec8	-0.22088158
220	0xbdd30a4e	-0.103047
221	0xbe184bfd	-0.14872737
222	0xbeb2c364	-0.34914696
223	0xbeb2350c	-0.34806097
224	0x3f218023	0.63086146
225	0x3fcf3178	1.6186972
226	0xbf2ff9e4	-0.6874068
227	0x3f665c17	0.8998427
228	0x3f58d474	0.8469918
229	0x3fa70a7f	1.3050078
230	0x404a0518	3.156561
231	0x3f11e019	0.5698257
232	0xc01b058d	-2.4222138
233	0xbfc33da7	-1.525319
234	0xbf2617f6	-0.6488031
235	0x3f094ae8	0.5362992
236	0x3ed3dfd0	0.41381693
237	0x3f94b1e9	1.1616794
238	0x40442db7	3.0652902
239	0x3e49972c	0.19686574
240	0x3ee7b97f	0.4525871
241	0x3c247a43	0.010038915
242	0xbfd6dc8b	-1.6786054
243	0xbf6767aa	-0.90392554
244	0xbf3ebdfe	-0.74508655
245	0xbee9f3d4	-0.4569384
246	0x3f95b741	1.169655
247	0x3e5a0af5	0.21293242
248	0xbfd47f4c	-1.6601348
249	0x3f2416ca	0.64097273
250	0xbf0e17f7	-0.5550532
251	0xbe77315f	-0.24139927
252	0xbfd4596d	-1.658979
253	0xbfb2b40e	-1.3961198
254	0x3fd7812a	1.6836293
255	0xbd10e495	-0.035374243
